…
)</span><br><span class="line">model.add(layers.Dense(<span class="number">2</span>,activation=<span class="string">&#x27;softmax&#x27;</span>))  <span class="comment">#真实的AlexNet会分成1000类，此处分2类 sofmax来计算概率</span></span><br><span class="line"></span><br><span class="line">model.summary()</span><br></pre></td></tr></table></figure>
<pre><code>Model: &quot;sequential&quot;
_________________________________________________________________
Layer (type)                 Output Shape              Param #   
=================================================================
conv2d (Conv2D)              (None, 55, 55, 96)        34944     
_________________________________________________________________
max_pooling2d (MaxPooling2D) (None, 27, 27, 96)        0         
_________________________________________________________________
lrn (LRN)                    (None, 27, 27, 96)        0         
_________________________________________________________________
conv2d_1 (Conv2D)            (None, 27, 27, 256)       614656    
_________________________________________________________________
max_pooling2d_1 (MaxPooling2 (None, 13, 13, 256)       0         
_________________________________________________________________
lrn_1 (LRN)                  (None, 13, 13, 256)       0         
_________________________________________________________________
conv2d_2 (Conv2D)            (None, 13, 13, 384)       885120    
_________________________________________________________________
conv2d_3 (Conv2D)            (None, 13, 13, 384)       1327488   
_________________________________________________________________
conv2d_4 (Conv2D)            (None, 13, 13, 256)       884992    
_________________________________________________________________
max_pooling2d_2 (MaxPooling2 (None, 6, 6, 256)         0         
_________________________________________________________________
flatten (Flatten)            (None, 9216)              0         
_________________________________________________________________
dense (Dense)                (None, 4096)              37752832  
_________________________________________________________________
dropout (Dropout)            (None, 4096)              0         
_________________________________________________________________
dense_1 (Dense)              (None, 4096)              16781312  
_________________________________________________________________
dropout_1 (Dropout)          (None, 4096)              0         
_________________________________________________________________
dense_2 (Dense)              (None, 2)                 8194      
=================================================================
Total params: 58,289,538
Trainable params: 58,289,538
Non-trainable params: 0
_________________________________________________________________
</code></pre>
<h2 id="3-训练模型"><a class="markdownIt-Anchor" href="#3-训练模型"></a> 3、训练模型</h2>
<figure class="highlight python"><table><tr><td class="code"><pre><span class="line"><span c
…
