…
<figure class="highlight plaintext"><table><tr><td class="code"><pre><span class="line">CUDA-version: 11000 (11000), cuDNN: 8.0.4, GPU count: 1  </span><br><span class="line"> OpenCV version: 4.5.1</span><br><span class="line"> 0 : compute_capability = 610, cudnn_half = 0, GPU: GeForce GTX 1050 </span><br><span class="line">net.optimized_memory = 0 </span><br><span class="line">mini_batch = 1, batch = 8, time_steps = 1, train = 0</span><br><span class="line">   layer   filters  size/strd(dil)      input                output</span><br><span class="line">   0 Create CUDA-stream - 0</span><br><span class="line"> Create cudnn-handle 0 </span><br><span class="line">conv     32       3 x 3/ 1    608 x 608 x   3 -&gt;  608 x 608 x  32 0.639 BF</span><br><span class="line">   1 conv     64       3 x 3/ 2    608 x 608 x  32 -&gt;  304 x 304 x  64 3.407 BF</span><br><span class="line">   2 conv     64       1 x 1/ 1    304 x 304 x  64 -&gt;  304 x 304 x  64 0.757 BF</span><br><span class="line">   3 route  1                                      -&gt;  304 x 304 x  64 </span><br><span class="line">   4 conv     64       1 x 1/ 1    304 x 304 x  64 -&gt;  304 x 304 x  64 0.757 BF</span><br><span class="line">   5 conv     32       1 x 1/ 1    304 x 304 x  64 -&gt;  304 x 304 x  32 0.379 BF</span><br><span class="line">   6 conv     64       3 x 3/ 1    304 x 304 x  32 -&gt;  304 x 304 x  64 3.407 BF</span><br><span class="line">   7 Shortcut Layer: 4,  wt = 0, wn = 0, outputs: 304 x 304 x  64 0.006 BF</span><br><span class="line">   8 conv     64       1 x 1/ 1    304 x 304 x  64 -&gt;  304 x 304 x  64 0.757 BF</span><br><span class="line">   9 route  8 2                                    -&gt;  304 x 304 x 128 </span><br><span class="line">  10 conv     64       1 x 1/ 1    304 x 304 x 128 -&gt;  304 x 304 x  64 1.514 BF</span><br><span class="line">  11 conv    128       3 x 3/ 2    304 x 304 x  64 -&gt;  152 x 152 x 128 3.407 BF</span><br><span class="line">  12 conv     64       1 x 1/ 1    152 x 152 x 128 -&gt;  152 x 152 x  64 0.379 BF</span><br><span class="line">  13 route  11                                     -&gt;  152 x 152 x 128</span><br><span class="line">  14 conv     64       1 x 1/ 1    152 x 152 x 128 -&gt;  152 x 152 x  64 0.379 BF</span><br><span class="line">  15 conv     64       1 x 1/ 1    152 x 152 x  64 -&gt;  152 x 152 x  64 0.189 BF</span><br><span class="line">  16 conv     64       3 x 3/ 1    152 x 152 x  64 -&gt;  152 x 152 x  64 1.703 BF</span><br><span class="line">  17 Shortcut Layer: 14,  wt = 0, wn = 0, outputs: 152 x 152 x  64 0.001 BF</span><br><span class="line">  18 conv     64       1 x 1/ 1    152 x 152 x  64 -&gt;  152 x 152 x  64 0.189 BF</span><br><span class="line">  19 conv     64       3 x 3/ 1    152 x 152 x  64 -&gt;  152 x 152 x  64 1.703 BF</span><br><span class="line">  20 Shortcut Layer: 17,  wt = 0, wn = 0, outputs: 152 x 152 x  64 0.001 BF</span><br><span class="line">  21 conv     64       1 x 1/ 1    152 x 152 x  64 -&gt;  152 x 152 x  64 0.189 BF</span><br><span class="line">  22 route  21 12                                  -&gt;  152 x 152 x 128 </span><br><span class="line">  23 conv    128       1 x 1/ 1    152 x 152 x 128 -&gt;  152 x 152 x 128 0.757 BF</span><br><span class="line">  24 conv    256       3 x 3/ 2    152 x 152 x 128 -&gt;   76 x  76 x 256 3.407 BF</span><br><span class="line">  25 conv    128       1 x 1/ 1     76 x  76 x 256 -&gt;   76 x  76 x 128 0.379 BF</span><br><span class="line">  26 route  24                                     -&gt;   76 x  76 x 256</span><br><span class="line">  27 conv    128       1 x 1/ 1     76 x  76 x 256 -&gt;   76 x  76 x 128 0.379 BF</span><br><span class="line">  28 conv    128       1 x 1/ 1     76 x  76 x 128 -&gt;   76 x  76 x 128 0.189 BF</span><br><span class="line">  29 conv    128       3 x 3/ 1     76 x  76 x 128 -&gt;   76 x  76 x 128 1.703 BF</span><br><span class="line">  30 Shortcut Layer: 27,  wt = 0, wn = 0, outputs:  76 x  76 x 128 0.001 BF</span><br><span class="line">  31 conv    128       1 x 1/ 1     76 x  76 x 128 -&gt;   76 x  76 x 128 0.189 BF</span><br><span class="line">  32 conv    128       3 x 3/ 1     76 x  76 x 128 -&gt;   76 x  76 x 128 1.703 BF</span><br><span class="line">  33 Shortcut Layer: 30,  wt = 0, wn = 0, outputs:  76 x  76 x 128 0.001 BF</span><br><span class="line">  34 conv    128       1 x 1/ 1     76 x  76 x 128 -&gt;   76 x  76 x 128 0.189 BF</span><br><span class="line">  35 conv    128       3 x 3/ 1     76 x  76 x 128 -&gt;   76 x  76 x 128 1.703 BF</span><br><span class="line">  36 Shortcut Layer: 33,  wt = 0, wn = 0, outputs:  76 x  76 x 128 0.001 BF</span><br><span class="line">  37 conv    128       1 x 1/ 1     76 x  76 x 128 -&gt;   76 x  76 x 128 0.189 BF</span><br><span class="line">  38 conv    128       3 x 3/ 1     76 x  76 x 128 -&gt;   76 x  76 x 128 1.703 BF</span><br><span class="line">  39 Shortcut Layer: 36,  wt = 0, wn = 0, outputs:  76 x  76 x 128 0.001 BF</span><br><span class="line">  40 conv    128       1 x 1/ 1     76 x  76 x 128 -&gt;   76 x  76 x 128 0.189 BF</span><br><span class="line">  41 conv    128       3 x 3/ 1     76 x  76 x 128 -&gt;   76 x  76 x 128 1.703 BF</span><br><span class="line">  42 Shortcut Layer: 39,  wt = 0, wn = 0, outputs:  76 x  76 x 128 0.001 BF</span><br><span class="line">  43 conv    128       1 x 1/ 1     76 x  76 x 128 -&gt;   76 x  76 x 128 0.189 BF</span><br><span class="line">  44 conv    128       3 x 3/ 1     76 x  76 x 128 -&gt;   76 x  76 x 128 1.703 BF</span><br><span class="line">  45 Shortcut Layer: 42,  wt = 0, wn = 0, outputs:  76 x  76 x 128 0.001 BF</span><br><span class="line">  46 conv    128       1 x 1/ 1     76 x  76 x 128 -&gt;   76 x  76 x 128 0.189 BF</span><br><span class="line">  47 conv    128       3 x 3/ 1     76 x  76 x 128 -&gt;   76 x  76 x 128 1.703 BF</span><br><span class="line">  48 Shortcut Layer: 45,  wt = 0, wn = 0, outputs:  76 x  76 x 128 0.001 BF</span><br><span class="line">  49 conv    128       1 x 1/ 1     76 x  76 x 128 -&gt;   76 x  76 x 128 0.189 BF</span><br><span class="line">  50 conv    128       3 x 3/ 1     76 x  76 x 128 -&gt;   76 x  76 x 128 1.703 BF</span><br><span class="line">  51 Shortcut Layer: 48,  wt = 0, wn = 0, outputs:  76 x  76 x 128 0.001 BF</span><br><span class="line">  52 conv    128       1 x 1/ 1     76 x  76 x 128 -&gt;   76 x  76 x 128 0.189 BF</span><br><span class="line">  53 route  52 25                                  -&gt;   76 x  76 x 256 </span><br><span class="line">  54 conv    256       1 x 1/ 1     76 x  76 x 256 -&gt;   76 x  76 x 256 0.757 BF</span><br><span class="line">  55 conv    512       3 x 3/ 2     76 x  76 x 256 -&gt;   38 x  38 x 512 3.407 BF</span><br><span class="line">  56 conv    256       1 x 1/ 1     38 x  38 x 512 -&gt;   38 x  38 x 256 0.379 BF</span><br><span class="line">  57 route  55                                     -&gt;   38 x  38 x 512</span><br><span class="line">  58 conv    256       1 x 1/ 1     38 x  38 x 512 -&gt;   38 x  38 x 256 0.379 BF</span><br><span class="line">  59 conv    256       1 x 1/ 1     38 x  38 x 256 -&gt;   38 x  38 x 256 0.189 BF</span><br><span class="line">  60 conv    256       3 x 3/ 1     38 x  38 x 256 -&gt;   38 x  38 x 256 1.703 BF</span><br><span class="line">  61 Shortcut Layer: 58,  wt = 0, wn = 0, outputs:  38 x  38 x 256 0.000 BF</span><br><span class="line">  62 conv    256       1 x 1/ 1     38 x  38 x 256 -&gt;   38 x  38 x 256 0.189 BF</span><br><span class="line">  63 conv    256       3 x 3/ 1     38 x  38 x 256 -&gt;   38 x  38 x 256 1.703 BF</span><br><span class="line">  64 Shortcut Layer: 61,  wt = 0, wn = 0, outputs:  38 x  38 x 256 0.000 BF</span><br><span class="line">  65 conv    256       1 x 1/ 1     38 x  38 x 256 -&gt;   38 x  38 x 256 0.189 BF</span><br><span class="line">  66 conv    256       3 x 3/ 1     38 x  38 x 256 -&gt;   38 x  38 x 256 1.703 BF</span><br><span class="line">  67 Shortcut Layer: 64,  wt = 0, wn = 0, outputs:  38 x  38 x 256 0.000 BF</span><br><span class="line">  68 conv    256       1 x 1/ 1     38 x  38 x 256 -&gt;   38 x  38 x 256 0.189 BF</span><br><span class="line">  69 conv    256       3 x 3/ 1     38 x  38 x 256 -&gt;   38 x  38 x 256 1.703 BF</span><br><span class="line">  70 Shortcut Layer: 67,  wt = 0, wn = 0, outputs:  38 x  38 x 256 0.000 BF</span><br><span class="line">  71 conv    256       1 x 1/ 1     38 x  38 x 256 -&gt;   38 x  38 x 256 0.189 BF</span><br><span class="line">  72 conv    256       3 x 3/ 1     38 x  38 x 256 -&gt;   38 x  38 x 256 1.703 BF</span><br><span class="line">  73 Shortcut Layer: 70,  wt = 0, wn = 0, outputs:  38 x  38 x 256 0.000 BF</span><br><span class="line">  74 conv    256       1 x 1/ 1     38 x  38 x 256 -&gt;   38 x  38 x 256 0.189 BF</span><br><span class="line">  75 conv    256       3 x 3/ 1     38 x  38 x 256 -&gt;   38 x  38 x 256 1.703 BF</span><br><span class="line">  76 Shortcut Layer: 73,  wt = 0, wn = 0, outputs:  38 x  38 x 256 0.000 BF</span><br><span class="line">  77 conv    256       1 x 1/ 1     38 x  38 x 256 -&gt;   38 x  38 x 256 0.189 BF</span><br><span class="line">  78 conv    256       3 x 3/ 1     38 x  38 x 256 -&gt;   38 x  38 x 256 1.703 BF</span><br><span class="line">  79 Shortcut Layer: 76,  wt = 0, wn = 0, outputs:  38 x  38 x 256 0.000 BF</span><br><span class="line">  80 conv    256       1 x 1/ 1     38 x  38 x 256 -&gt;   38 x  38 x 256 0.189 BF</span><br><span class="line">  81 conv    256       3 x 3/ 1     38 x  38 x 256 -&gt;   38 x  38 x 256 1.703 BF</span><br><span class="line">  82 Shortcut Layer: 79,  wt = 0, wn = 0, outputs:  38 x  38 x 256 0.000 BF</span><br><span class="line">  83 conv    256       1 x 1/ 1     38 x  38 x 256 -&gt;   38 x  38 x 256 0.189 BF</span><br><span class="line">  84 route  83 56                                  -&gt;   38 x  38 x 512 </span><br><span class="line">  85 conv    512       1 x 1/ 1     38 x  38 x 512 -&gt;   38 x  38 x 512 0.757 BF</span><br><span class="line">  86 conv   1024       3 x 3/ 2     38 x  38 x 512 -&gt;   19 x  19 x1024 3.407 BF</span><br><span class="line">  87 conv    512       1 x 1/ 1     19 x  19 x1024 -&gt;   19 x  19 x 512 0.379 BF</span><br><span class="line">  88 route  86                                     -&gt;   19 x  19 x1024</span><br><span class="line">  89 conv    512       1 x 1/ 1     19 x  19 x1024 -&gt;   19 x  19 x 512 0.379 BF</span><br><span class="line">  90 conv    512       1 x 1/ 1     19 x  19 x 512 -&gt;   19 x  19 x 512 0.189 BF</span><br><span class="line">  91 conv    512       3 x 3/ 1     19 x  19 x 512 -&gt;   19 x  19 x 512 1.703 BF</span><br><span class="line">  92 Shortcut Layer: 89,  wt = 0, wn = 0, outputs:  19 x  19 x 512 0.000 BF</span><br><span class="line">  93 conv    512       1 x 1/ 1     19 x  19 x 512 -&gt;   19 x  19 x 512 0.189 BF</span><br><span class="line">  94 conv    512       3 x 3/ 1     19 x  19 x 512 -&gt;   19 x  19 x 512 1.703 BF</span><br><span class="line">  95 Shortcut Layer: 92,  wt = 0, wn = 0, outputs:  19 x  19 x 512 0.000 BF</span><br><span class="line">  96 conv    512       1 x 1/ 1     19 x  19 x 512 -&gt;   19 x  19 x 512 0.189 BF</span><br><span class="line">  97 conv    512       3 x 3/ 1     19 x  19 x 512 -&gt;   19 x  19 x 512 1.703 BF</span><br><span class="line">  98 Shortcut Layer: 95,  wt = 0, wn = 0, outputs:  19 x  19 x 512 0.000 BF</span><br><span class="line">  99 conv    512       1 x 1/ 1     19 x  19 x 512 -&gt;   19 x  19 x 512 0.189 BF</span><br><span class="line"> 100 conv    512       3 x 3/ 1     19 x  19 x 512 -&gt;   19 x  19 x 512 1.703 BF</span><br><span class="line"> 101 Shortcut Layer: 98,  wt = 0, wn = 0, outputs:  19 x  19 x 512 0.000 BF</span><br><span class="line"> 102 conv    512       1 x 1/ 1     19 x  19 x 512 -&gt;   19 x  19 x 512 0.189 BF</span><br><span class="line"> 103 route  102 87                                 -&gt;   19 x  19 x1024</span><br><span class="line"> 104 conv   1024       1 x 1/ 1     19 x  19 x1024 -&gt;   19 x  19 x1024 0.757 BF</span><br><span class="line"> 105 conv    512       1 x 1/ 1     19 x  19 x1024 -&gt;   19 x  19 x 512 0.379 BF</span><br><span class="line"> 106 conv   1024       3 x 3/ 1     19 x  19 x 512 -&gt;   19 x  19 x1024 3.407 BF</span><br><span class="line"> 107 conv    512       1 x 1/ 1     19 x  19 x1024 -&gt;   19 x  19 x 512 0.379 BF</span><br><span class="line"> 108 max                5x 5/ 1     19 x  19 x 512 -&gt;   19 x  19 x 512 0.005 BF</span><br><span class="line"> 109 route  107                                            -&gt;   19 x  19 x 512</span><br><span class="line"> 110 max                9x 9/ 1     19 x  19 x 512 -&gt;   19 x  19 x 512 0.015 BF</span><br><span class="line"> 111 route  107                                            -&gt;   19 x  19 x 512</span><br><span class="line"> 112 max               13x13/ 1     19 x  19 x 512 -&gt;   19 x  19 x 512 0.031 BF</span><br><span class="line"> 113 route  112 110 108 107                        -&gt;   19 x  19 x2048</span><br><span class="line"> 114 conv    512       1 x 1/ 1     19 x  19 x2048 -&gt;   19 x  19 x 512 0.757 BF</span><br><span class="line"> 115 conv   1024       3 x 3/ 1     19 x  19 x 512 -&gt;   19 x  19 x1024 3.407 BF</span><br><span class="line"> 116 conv    512       1 x 1/ 1     19 x  19 x1024 -&gt;   19 x  19 x 512 0.379 BF</span><br><span class="line"> 117 conv    256       1 x 1/ 1     19 x  19 x 512 -&gt;   19 x  19 x 256 0.095 BF</span><br><span class="line"> 118 upsample                 2x    19 x  19 x 256 -&gt;   38 x  38 x 256</span><br><span class="line"> 119 route  85                                     -&gt;   38 x  38 x 512</span><br><span class="line"> 120 conv    256       1 x 1/ 1     38 x  38 x 512 -&gt;   38 x  38 x 256 0.379 BF</span><br><span class="line"> 121 route  120 118                                -&gt;   38 x  38 x 512 </span><br><span class="line"> 122 conv    256       1 x 1/ 1     38 x  38 x 512 -&gt;   38 x  38 x 256 0.379 BF</span><br><span class="line"> 123 conv    512       3 x 3/ 1     38 x  38 x 256 -&gt;   38 x  38 x 512 3.407 BF</span><br><span class="line"> 124 conv    256       1 x 1/ 1     38 x  38 x 512 -&gt;   38 x  38 x 256 0.379 BF</span><br><span class="line"> 125 conv    512       3 x 3/ 1     38 x  38 x 256 -&gt;   38 x  38 x 512 3.407 BF</span><br><span class="line"> 126 conv    256       1 x 1/ 1     38 x  38 x 512 -&gt;   38 x  38 x 256 0.379 BF</span><br><span class="line"> 127 conv    128       1 x 1/ 1     38 x  38 x 256 -&gt;   38 x  38 x 128 0.095 BF</span><br><span class="line"> 128 upsample                 2x    38 x  38 x 128 -&gt;   76 x  76 x 128</span><br><span class="line"> 129 route  54                                     -&gt;   76 x  76 x 256</span><br><span class="line"> 130 conv    128       1 x 1/ 1     76 x  76 x 256 -&gt;   76 x  76 x 128 0.379 BF</span><br><span class="line"> 131 route  130 128                                -&gt;   76 x  76 x 256</span><br><span class="line"> 132 conv    128       1 x 1/ 1     76 x  76 x 256 -&gt;   76 x  76 x 128 0.379 BF</span><br><span class="line"> 133 conv    256       3 x 3/ 1     76 x  76 x 128 -&gt;   76 x  76 x 256 3.407 BF</span><br><span class="line"> 134 conv    128       1 x 1/ 1     76 x  76 x 256 -&gt;   76 x  76 x 128 0.379 BF</span><br><span class="line"> 135 conv    256       3 x 3/ 1     76 x  76 x 128 -&gt;   76 x  76 x 256 3.407 BF</span><br><span class="line"> 136 conv    128       1 x 1/ 1     76 x  76 x 256 -&gt;   76 x  76 x 128 0.379 BF</span><br><span class="line"> 137 conv    256       3 x 3/ 1     76 x  76 x 128 -&gt;   76 x  76 x 256 3.407 BF</span><br><span class="line"> 138 conv    255       1 x 1/ 1     76 x  76 x 256 -&gt;   76 x  76 x 255 0.754 BF</span><br><span class="line"> 139 yolo</span><br><span class="line">[yolo] params: iou loss: ciou (4), iou_norm: 0.07, obj_norm: 1.00, cls_norm: 1.00, delta_norm: 1.00, scale_x_y: 1.20</span><br><span class="line">nms_kind: greedynms (1), beta = 0.600000</span><br><span class="line"> 140 route  136                                            -&gt;   76 x  76 x 128</span><br><span class="line"> 141 conv    256       3 x 3/ 2     76 x  76 x 128 -&gt;   38 x  38 x 256 0.852 BF</span><br><span class="line"> 142 route  141 126                                -&gt;   38 x  38 x 512 </span><br><span class="line"> 143 conv    256       1 x 1/ 1     38 x  38 x 512 -&gt;   38 x  38 x 256 0.379 BF</span><br><span class="line"> 144 conv    512       3 x 3/ 1     38 x  38 x 256 -&gt;   38 x  38 x 512 3.407 BF</span><br><span class="line"> 145 conv    256       1 x 1/ 1     38 x  38 x 512 -&gt;   38 x  38 x 256 0.379 BF</span><br><span class="line"> 146 conv    512       3 x 3/ 1     38 x  38 x 256 -&gt;   38 x  38 x 512 3.407 BF</span><br><span class="line"> 147 conv    256       1 x 1/ 1     38 x  38 x 512 -&gt;   38 x  38 x 256 0.379 BF</span><br><span class="line"> 148 conv    512       3 x 3/ 1     38 x  38 x 256 -&gt;   38 x  38 x 512 3.407 BF</span><br><span class="line"> 149 conv    255       1 x 1/ 1     38 x  38 x 512 -&gt;   38 x  38 x 255 0.377 BF</span><br><span class="line"> 150 yolo</span><br><span class="line">[yolo] params: iou loss: ciou (4), iou_norm: 0.07, obj_norm: 1.00, cls_norm: 1.00, delta_norm: 1.00, scale_x_y: 1.10</span><br><span class="line">nms_kind: greedynms (1), beta = 0.600000</span><br><span class="line"> 151 route  147                                            -&gt;   38 x  38 x 256</span><br><span class="line"> 152 conv    512       3 x 3/ 2     38 x  38 x 256 -&gt;   19 x  19 x 512 0.852 BF</span><br><span class="line"> 153 route  152 116                                -&gt;   19 x  19 x1024</span><br><span class="line"> 154 conv    512       1 x 1/ 1     19 x  19 x1024 -&gt;   19 x  19 x 512 0.379 BF</span><br><span class="line"> 155 conv   1024       3 x 3/ 1     19 x  19 x 512 -&gt;   19 x  19 x1024 3.407 BF</span><br><span class="line"> 156 conv    512       1 x 1/ 1     19 x  19 x1024 -&gt;   19 x  19 x 512 0.379 BF</span><br><span class="line"> 157 conv   1024       3 x 3/ 1     19 x  19 x 512 -&gt;   19 x  19 x1024 3.407 BF</span><br><span class="line"> 158 conv    512       1 x 1/ 1     19 x  19 x1024 -&gt;   19 x  19 x 512 0.379 BF</span><br><span class="line"> 159 conv   1024       3 x 3/ 1     19 x  19 x 512 -&gt;   19 x  19 x1024 3.407 BF</span><br><span class="line"> 160 conv    255       1 x 1/ 1     19 x  19 x1024 -&gt;   19 x  19 x 255 0.189 BF</span><br><span class="line"> 161 yolo</span><br><span class="line">[yolo] params: iou loss: ciou (4), iou_norm: 0.07, obj_norm: 1.00, cls_norm: 1.00, delta_norm: 1.00, scale_x_y: 1.05</span><br><span class="line">nms_kind: greedynms (1), beta = 0.600000</span><br><span class="line">Total BFLOPS 128.459</span><br><span class="line">avg_outputs = 
…
